pytorch_simple/results/model.pth (torch, 182523 bytes, 8 tensors)

conv1.weight f4 [20, 1, 5, 5]
-0.13114785 -0.13558328 0.038938 0.053767316 0.25834852 -0.15699252 0.15036044 0.25214204
0.035361733 -0.03386565 0.286547 0.15265307 -0.18810278 -0.4364644 -0.28114924 -0.22084264
-0.22236075 -0.18012233 0.14475492 0.22827227 -0.35269597 0.16477159 0.09736061 0.30178535
0.026421435 -0.32216358 -0.2946692 -0.25234824 0.112960026 0.03163819 -0.23157747 -0.012016164
0.17943394 0.032013908 0.21346013 -0.19474243 -0.005649404 0.13383795 0.0449019 0.13562544
-0.09831188 -0.005146567 0.05475609 0.19173634 0.12204577 -0.022495324 0.14041242 0.21583308
0.12444327 -0.06904804 0.15620604 0.049012188 -0.09238089 0.19935508 0.24197814 0.3031939
-0.21647397 -0.12069495 -0.072251365 0.12301509 -0.24462406 -0.24066633 -0.021617165 -0.013648238
0.34051394 -0.12833664 -0.04690687 -0.023698261 0.1280548 0.29693997 -0.4406978 -0.20562993
-0.40203384 -0.5047843 -0.23919019 -0.10112121 0.09338106 -0.058852233 -0.12156102 -0.054267544
-0.15199745 -0.06882937 -0.16290453 -0.11515771 0.20694445 -0.21687582 -0.3059648 -0.40977842
0.16163069 0.32830888 -0.46004814 -0.19403133 -0.023604602 0.19178773 0.3929697 -0.09463994
-0.19344625 -0.13977067 0.25949425 0.17134614 0.1412219 0.11913076 0.3749405 0.35848793
0.0755968 -0.23473507 -0.073955856 0.062442224 0.42398265 0.2573675 -0.29218397 -0.34672067
-0.32468313 -0.005425306 0.41873845 -0.2346227 -0.075179815 -0.3082486 -0.31944123 0.20532498
-0.011822172 0.12538841 -0.23959391 -0.1711947 0.18725969 0.5313804 0.2694791 0.25171003
0.2160092 0.12177584 -0.058447517 -0.15412897 -0.22747342 -0.11480617 -0.106563024 0.022512548
0.15296564 0.10477604 0.10447209 0.022196993 0.15377876 0.22784747 0.011327278 0.13347897
0.0068647154 -0.17425369 -0.38686544 -0.3662442 -0.40176168 -0.4403537 0.30142048 0.016323727
-0.14485744 -0.02868667 0.042183343 0.21545795 -0.38965395 -0.21156722 0.045914743 -0.002379726
-0.43665808 -0.50813574 0.050054792 0.4838672 0.07961878 -0.11574016 0.22063786 0.6094318
0.21832162 -0.2566632 -0.055581167 0.24410614 -0.054482132 -0.40981808 -0.29788727 -0.13116647
-0.13363016 0.21787444 -0.20444697 -0.3497777 -0.040793836 -0.21744888 -0.012204361 -0.23003073
-0.28666288 0.16055518 0.1355685 0.0275579 0.36276224 0.43341994 0.26071584 -0.04933769
0.14122327 -0.0059518903 0.280307 -0.29080048 0.10681177 -0.13780235 -0.23230723 0.009149974
0.0770234 0.07845473 0.012916383 -0.022194656 -0.31717563 0.05101371 0.2922241 0.045311227
-0.12927835 -0.46402925 0.19073714 0.6178521 -0.15322594 -0.1379603 -0.6035437 0.04111641
0.18773967 0.021939922 -0.101199865 -0.08770627 -0.008914485 0.03771519 0.040900018 0.048662923
-0.0115720555 -0.012859654 0.05526584 0.27194494 0.13881105 0.35134318 0.022220634 -0.26127276
-0.49790642 -0.2178239 0.03298006 -0.02478592 -0.18031499 -0.20659831 -0.49299207 -0.3448456
0.041943848 0.3666658 0.3474987 0.017287068 -0.16278061 0.11942965 0.056892958 0.07371665
0.3572325 0.1921325 -0.09100776 0.007424556 0.14869775 0.33780566 -0.22059746 0.3218293
00000000: 9f4b 06be 58d6 0abe 747d 1f3d 1e3b 5c3d
00000010: 4246 843e a6c2 20be 16f8 193e c318 813e
00000020: 77d7 103d b5b6 0abd 4ab6 923e 1651 1c3e
00000030: 049e 40be 4378 dfbe cbf2 8fbe 9324 62be
00000040: 89b2 63be fd71 38be a23a 143e 35c0 693e
00000050: 9194 b4be e2b9 283e 0065 c73d 9c83 9a3e
00000060: c471 d83c a0f2 a4be e2de 96be ca33 81be
00000070: 9657 e73d 0c97 013d a522 6dbe 72df 44bc
00000080: 88bd 373e 0421 033d 4b95 5a3e 8f6a 47be
00000090: a31e b9bb d10c 093e 0eeb 373d 65e1 0a3e
000000a0: bd57 c9bd 88a4 a8bb ec47 603d 8856 443e
000000b0: 22f3 f93d 1d48 b8bc 46c8 0f3e 5903 5d3e
000000c0: 1ddc fe3d 0f69 8dbd 7af4 1f3e 01c1 483d
000000d0: 3132 bdbd bd23 4c3e 1ec9 773e 3b3c 9b3e
000000e0: 5aab 5dbe ea2e f7bd 86f8 93bd 56ef fb3d
000000f0: bb7e 7abe 3c71 76be 7b16 b1bc dc9c 5fbc
00000100: d857 ae3e ae6a 03be 6b21 40bd db22 c2bc
00000110: cc20 033e 8408 983e 24a3 e1be a790 52be
00000120: 61d7 cdbe 8b39 01bf 46ee 74be a318 cfbd
00000130: 923e bf3d 0a0f 71bd fcf4 f8bd a547 5ebd
00000140: 38a5 1bbe 6af6 8cbd 72d0 26be ced7 ebbd
00000150: 3fe9 533e b214 5ebe 6ba7 9cbe 7ace d1be
00000160: 8482 253e 1a18 a83e 6e8b ebbe 26b0 46be
00000170: 705e c1bc 0164 443e 5333 c93e 96d2 c1bd
00000180: c616 46be 0b20 0fbe 6edc 843e 5d75 2f3e
00000190: 799c 103e d4fa f33d 34f8 bf3e bb8b b73e
000001a0: 7fd2 9a3d 645e 70be 2b76 97bd 6bc3 7f3d
000001b0: 4114 d93e acc5 833e 2399 95be 5f85 b1be
000001c0: de3c a6be c4c6 b1bb e364 d63e ef40 70be
000001d0: e0f7 99bd c3d2 9dbe cd8d a3be b640 523e
000001e0: c9b1 41bc d265 003e 1b58 75be aa4d 2fbe
000001f0: 01c1 3f3e 8c08 083f 2af9 893e 23e0 803e
00000200: 8431 5d3e 9d65 f93d aa66 6fbd fcd3 1dbe
00000210: cbee 68be 7f1f ebbd b73d dabd 3c6c b83c
00000220: 06a3 1c3e d294 d63d 77f5 d53d 78d6 b53c
00000230: 2e78 1d3e d950 693e 0c96 393c b6ae 083e
00000240: 68f1 e03b 8f6f 32be 3a13 c6be 5c84 bbbe
00000250: b5b3 cdbe 0a76 e1be c953 9a3e 56b9 853c
00000260: 8255 14be 4f00 ebbc 71c8 2c3d 02a1 5c3e
00000270: b980 c7be 14a5 58be 1911 3c3d 2df5 1bbb
00000280: a691 dfbe 2f15 02bf 4106 4d3d 71bd f73e
00000290: 2c0f a33d 2d09 edbd e4ee 613e b903 1c3f
000002a0: b48f 5f3e 5c69 83be 14a9 63bd f6f6 793e
000002b0: a828 5fbd add3 d1be ae84 98be 8150 06be
000002c0: 58d6 08be 7a1a 5f3e 8c5a 51be 1016 b3be
000002d0: 7017 27bd ebaa 5ebe cdf4 47bc 2d8d 6bbe
000002e0: 7ac5 92be 9468 243e 78d2 0a3e 1bc1 e13c
000002f0: f9bb b93e 38e9 dd3e 8c7c 853e 5116 4abd
00000300: d59c 103e 1308 c3bb 6684 8f3e cde3 94be
00000310: 21c0 da3d 0f1c 0dbe f2e1 6dbe c6e9 153c
00000320: 72be 9d3d e0ac a03d 3d9f 533c 91d1 b5bc
00000330: d864 a2be c1f3 503d 669e 953e 4498 393d
00000340: 8b61 04be 3e95 edbe 9950 433e 8e2b 1e3f
00000350: 43e7 1cbe 7745 0dbe d781 1abf ae69 283d
00000360: d43e 403e 5abb b33c e041 cfbd 589f b3bd
00000370: 0f0e 12bc 3e7b 1a3d c786 273d c652 473d
00000380: b898 3dbc 4cb1 52bc 6f5e 623d 5e3c 8b3e
00000390: 7c24 0e3e 41e3 b33e 0c08 b63c 8bc5 85be
000003a0: 97ed febe 3a0d 5fbe 1916 073d d70b cbbc
000003b0: 7ea4 38be 828e 53be 7569 fcbe 9a8f b0be
000003c0: 50cd 2b3d 9fbb bb3e 59eb b13e 9c9d 8d3c
000003d0: f6af 26be 8897 f43d 9708 693d c1f8 963d
000003e0: 2ee7 b63e 62be 443e 4762 babd b149 f33b
000003f0: 3944 183e ddf4 ac3e 4de4 61be cfc6 a43e

conv1.bias f4 [20]
0.13168196 -0.3031604 -0.35626793 -0.3355914 -0.4231162 -0.08277772 -0.1459177 -0.3472379
-0.23484874 -0.12799491 -0.3342246 0.05644025 -0.3864548 -0.18136783 -0.060766157 -0.18453895
-0.17095686 -0.39529687 -0.048573334 -0.51968384
00000000: a3d7 063e d737 9bbe c068 b6be a3d2 abbe
00000010: b0a2 d8be 5e87 a9bd 736b 15be 2bc9 b1be
00000020: 307c 70be 1911 03be 7d1f abbe e42d 673d
00000030: 67dd c5be 7db8 39be efe5 78bd c7f7 3cbe
00000040: 510f 2fbe 5a64 cabe d5f4 46bd 000a 05bf

conv2.weight f4 [30, 20, 5, 5]
-0.0472412 0.018811231 0.019437212 -0.004961558 -0.013680375 0.046291478 0.06612112 -0.037405405
0.061100353 0.059215266 -0.052502565 0.035414796 0.11323735 -0.008089578 -0.03855672 -0.002503611
0.005269828 0.041961562 0.010711223 0.042442758 -0.07723791 -0.043195788 -0.010737702 -0.027798662
-0.010102551 0.09574669 0.027339213 0.08735203 0.037407424 -0.052802827 0.08347008 0.020843247
0.019730005 0.030954074 0.013909247 -0.015712302 0.08126626 0.06072185 0.047167726 0.01681645
-0.037631072 0.039260782 -0.00035669538 0.026183227 -0.13518342 0.010598458 0.020217462 0.05015133
-0.12669712 -0.28413618 0.035837263 -0.047311362 0.012279757 0.0194538 -0.018869273 0.073502116
-0.01423965 -0.0447669 -0.07298805 0.00014709414 0.05311132 0.01845999 -0.06746551 -0.029266076
0.045200374 0.080453835 0.0026417843 0.0018194198 -0.019902585 0.022704722 0.0012640172 0.026514731
0.08873183 0.023555221 -0.004837644 0.10125447 0.05869225 0.058984406 -0.008647489 0.051558133
0.08928658 0.11819636 0.07970348 0.07820614 0.0138321975 0.05016597 0.055040244 0.1331425
0.12421178 -0.0710097 0.08012553 0.029843932 0.14144874 0.061078105 -0.21151543 -0.019979026
0.17456032 0.10576286 -0.02061577 -0.0876592 -0.091174334 -0.03825324 -0.030345896 0.019392775
0.11593352 -0.1115904 -0.11090897 -0.058773313 -0.108152755 -0.04000198 -0.10534778 -0.031536087
-0.11236077 -0.1457898 0.0078364685 -0.05695624 -0.033759356 -0.121431716 -0.18413018 0.1154308
-0.08629158 -0.0022537275 -0.016070334 -0.00419617 -0.027774723 0.032359593 0.07901241 0.03711657
-0.008457547 0.0492812 -0.0055913664 0.02895111 -0.078366846 0.10961308 0.07299164 -0.08013172
-0.053266037 -0.0703557 0.1731702 0.04150129 -0.13686551 -0.104212105 -0.012146382 0.029136918
-0.001669486 -0.09151439 0.052397184 0.017687546 0.012469772 -0.008783953 0.021966213 -0.06651245
-0.026778173 -0.044798933 -0.034585886 0.034129206 0.05187787 -0.02696899 -0.0044166665 0.0074567376
0.02730638 -0.0066521186 0.038081102 0.07413307 0.046000883 -0.04587765 -0.028401064 -0.033894774
0.023915272 0.006440981 -0.032984998 -0.09883623 -0.06332283 -0.0754568 -0.038890764 -0.09295981
-0.08690779 -0.074867256 -0.05346195 -0.06895915 0.0091284225 -0.043523565 -0.04132996 -0.011822595
0.02395488 -0.073026605 -0.07451168 -0.034983348 0.045157827 0.066685446 -0.03381043 -0.043113593
0.031129526 0.030890422 -0.066310674 -0.0794935 -0.050069284 -0.03584239 0.009808233 -0.006454654
0.082122765 -0.0045417016 0.04728974 0.044824634 -0.046684444 0.05595363 0.015844015 0.03848808
0.016054966 -0.04798687 0.083554015 0.00861903 -0.020492308 -0.0011325136 -0.003017312 0.0065407674
-0.12487596 0.022014484 0.048136074 0.018261353 -0.025137536 0.07235409 0.18153733 0.11704817
-0.044059366 -0.06135424 -0.06656946 -0.015098741 0.030154163 -0.044875994 -0.14750291 0.007469048
-0.02639583 -0.04172213 0.07960941 -0.06831156 -0.06251701 -0.06215957 -0.040520895 0.016592821
-0.012723235 -0.060967214 -0.11275165 -0.06091295 -0.068687074 0.040170707 0.013636956 -0.10295728
0.002086376 -0.06066683 0.031988338 -0.04808975 -0.033832442 -0.014694302 -0.025509927 0.09090425
00000000: fd7f 41bd 031a 9a3c ca3a 9f3c 9194 a2bb
00000010: a723 60bc 229c 3d3d 826a 873d 6936 19bd
00000020: 5d44 7a3d b58b 723d ee0c 57bd 1b0f 113d
00000030: fce8 e73d 268a 04bc a7ed 1dbd 9f13 24bb
00000040: 85ae ac3b e3df 2b3d 207e 2f3c 75d8 2d3d
00000050: e92e 9ebd 11ee 30bd 30ed 2fbc 05ba e3bc
00000060: 2c85 25bc d716 c43d 7cf6 df3c 9fe5 b23d
00000070: 8738 193d c747 58bd 5cf2 aa3d 75bf aa3c
00000080: d2a0 a13c 6693 fd3c 9ce3 633c 16b7 80bc
00000090: ed6e a63d 79b7 783d f232 413d a7c2 893c
000000a0: 0a23 1abd eacf 203d d802 bbb9 357e d63c
000000b0: 866d 0abe 28a5 2d3c 179f a53c 7b6b 4d3d
000000c0: e4bc 01be 4c7a 91be 18ca 123d 8fc9 41bd
000000d0: 0931 493c 935d 9f3c bc93 9abc 4788 963d
000000e0: 6c4d 69bc 7f5d 37bd c27a 95bd 483d 1a39
000000f0: 418b 593d 6839 973c 5b2b 8abd 69bf efbc
00000100: 0724 393d fbc4 a43d c921 2d3b 9979 ee3a
00000110: bf0a a3bc 41ff b93c 61ad a53a 6c35 d93c
00000120: 09b9 b53d e1f6 c03c 1985 9ebb 815e cf3d
00000130: 4967 703d a299 713d 33ae 0dbc 9f2e 533d
00000140: e2db b63d ef10 f23d 943b a33d 8a2a a03d
00000150: 71a0 623c d57a 4d3d e171 613d 8256 083e
00000160: bf62 fe3d 896d 91bd db18 a43d 437b f43c
00000170: f0d7 103e 092d 7a3d 8097 58be 0eab a3bc
00000180: f1bf 323e 339a d83d 67e2 a8bc ab86 b3bd
00000190: 9cb9 babd 6eaf 1cbd f597 f8bc 99dd 9e3c
000001a0: 8e6e ed3d 8289 e4bd 3e24 e3bd 49bc 70bd
000001b0: 317f ddbd 1ed9 23bd 94c0 d7bd fc2b 01bd
000001c0: 671d e6bd ec49 15be 8864 003c f24a 69bd
000001d0: 4047 0abd 31b1 f8bd 9f8c 3cbe fc66 ec3d
000001e0: a4b9 b0bd 46b3 13bb efa5 83bc 0680 89bb
000001f0: d187 e3bc 7e8b 043d 42d1 a13d 8b07 183d
00000200: 8691 0abc 15db 493d c837 b7bb e12a ed3c
00000210: cc7e a0bd d37c e03d a47c 953d 191c a4bd
00000220: 7d2d 5abd a616 90bd 8753 313e 42fd 293d
00000230: 7926 0cbe 286d d5bd 9e01 47bc 8cb0 ee3c
00000240: a8d2 daba e66b bbbd 6e9e 563d 79e5 903c
00000250: 044e 4c3c 92ea 0fbc 7df2 b33c ae37 88bd
00000260: e65d dbbc 167f 37bd eea9 0dbd 11cb 0b3d
00000270: e47d 543d 12ee dcbc afb9 90bb a657 f43b
00000280: a1b1 df3c 04fa d9bb eefa 1b3d 14d3 973d
00000290: 6c6b 3c3d 34ea 3bbd 59a9 e8bc 3fd5 0abd
000002a0: f6e9 c33c dd0e d33b 471b 07bd a66a cabd
000002b0: 66af 81bd 1889 9abd ec4b 1fbd b661 bebd
000002c0: b6fc b1bd 0154 99bd ebfa 5abd 743a 8dbd
000002d0: 618f 153c c445 32bd 9b49 29bd 8fb3 41bc
000002e0: 063d c43c f98e 95bd 9499 98bd b34a 0fbd
000002f0: 6af7 383d 6192 883d ce7c 0abd e197 30bd
00000300: 5903 ff3c e90d fd3c e4cd 87bd 7dcd a2bd
00000310: 7315 4dbd 78cf 12bd b6b2 203c 9081 d3bb
00000320: fb2f a83d 8ed2 94bb e3b2 413d 099a 373d
00000330: 3038 3fbd a22f 653d 4fcb 813c ada5 1d3d
00000340: b485 833c e18d 44bd 5e1e ab3d d536 0d3c
00000350: 7cdf a7bc da70 94ba 18be 45bb ef53 d63b
00000360: f8be ffbd b857 b43c 552a 453d d598 953c
00000370: 3ced cdbc 622e 943d ece4 393e f3b6 ef3d
00000380: 9877 34bd 954e 7bbd 9255 88bd b660 77bc
00000390: dd05 f73c e4cf 37bd 010b 17be eabe f43b
000003a0: 113c d8bc d3e4 2abd 420a a33d eee6 8bbd
000003b0: eb08 80bd 099b 7ebd 3df9 25bd abed 873c
000003c0: 1e75 50bc c2b8 79bd 56ea e6bd dc7f 79bd
000003d0: cfab 8cbd 0a8a 243d 8a6d 5f3c 44db d2bd
000003e0: 95bb 083b c87d 78bd 3406 033d c2f9 44bd
000003f0: e393 0abd 5fc0 70bc 32fa d0bc 022c ba3d

conv2.bias f4 [30]
0.06084157 -0.111535065 -0.036438912 0.06717158 -0.0025269603 -0.063638 -0.02711506 0.008328381
0.034342658 0.04142977 0.010496871 -0.045771163 -0.066417456 -0.016572142 0.0013718307 -0.021392737
-0.020560203 -0.022637831 -0.042017195 -0.01940422 -0.04000988 0.0466539 0.05835283 -0.04841816
-0.031636786 -0.047046702 0.0143999215 -0.022653623 -0.062022313 -0.0051640174
00000000: 0335 793d 7f6c e4bd f840 15bd 4191 893d
00000010: 5c9b 25bb a454 82bd 6720 debc c373 083c
00000020: e3aa 0c3d 43b2 293d 11fb 2b3c 8b7a 3bbd
00000030: e005 88bd 4dc2 87bc 00cf b33a d23f afbc
00000040: df6d a8bc f972 b9bc 391a 2cbd 99f5 9ebc
00000050: 66e1 23bd 2918 3f3d 6103 6f3d 1f52 46bd
00000060: 9395 01bd 0bb4 40bd a6ed 6b3c 1794 b9bc
00000070: 1c0b 7ebd eb36 a9bb

fc1.weight f4 [60, 480]
-0.00809784 -0.02836774 0.03195117 0.0782547 0.007760426 0.07322093 -0.0804545 0.10903845
0.03329162 0.0053520217 -0.07088998 0.071516715 -0.1151536 -0.10512315 -0.046546493 -0.019883588
-0.035391875 0.019320238 0.03555023 -0.09792754 -0.060076177 0.0070008845 0.01444717 0.034636185
-0.10621682 -0.030519413 -0.027995637 0.07775305 0.071442194 -0.028449642 0.0061916867 -0.013036696
-0.013673038 -0.050527196 -0.0022320533 -0.0034234945 -0.00504166 0.048005298 0.0346378 -0.05032441
-0.12054535 0.027995793 0.086872205 0.053637117 -0.049198512 -0.0023329048 0.023003908 -0.06071756
0.08340947 0.039749827 0.002326737 -0.00427923 0.031006701 -0.06240976 -0.0751719 0.017082248
-0.06303341 -0.05865945 -0.039629113 0.0038905046 -0.0074746157 -0.04263619 0.029239943 0.007719491
-0.037615824 0.022160705 0.053496305 -0.026783707 0.041759375 -0.03991153 0.08920621 -0.07156007
-0.039350666 0.0063049034 0.0005318387 0.008089623 0.037660036 0.028705934 0.047891933 0.009802783
0.011913047 0.025643574 -0.03788404 0.0037043705 0.040946215 -0.02631363 -0.05682381 -0.09360535
0.03194762 -0.022922393 0.038434707 -0.05271052 -0.028318198 0.10244695 -0.08680483 0.031140305
-0.033791423 0.09431129 0.013602502 0.0721955 -0.027585562 -0.0046559386 0.0016320145 -0.0650072
-0.035614453 -0.06383837 0.085983716 -0.04430343 -0.009834347 0.03942146 0.07382058 -0.053513028
0.037388388 0.0021484073 -0.051713344 0.036702413 -0.004314324 0.033984035 -0.071810134 -0.009303042
-0.14111747 0.01014581 -0.06733674 -0.07365264 0.011313224 0.084247455 -0.05047826 0.05484366
-0.017537877 -0.030844446 -0.08203413 -0.056310527 0.04840078 0.06629587 0.008478333 0.022798268
0.01934525 0.073273554 -0.060816858 0.04560542 -0.009351291 -0.06370781 -0.038056806 -0.04360547
-0.07182714 -0.08061036 0.0016551092 -0.09977269 -0.0704316 -0.051896647 0.060731474 -0.051770933
0.037604213 -0.0116318315 0.11634062 0.01058125 -0.009013355 0.07673701 0.04168792 -0.012848608
0.013519989 0.028535815 0.123332 -0.018550575 0.02634974 -0.05463641 -0.010619341 0.07452935
0.031348664 -0.12918878 0.018403988 0.0024815903 -0.03235148 0.076947615 -0.00502743 -0.03873589
0.034447744 -0.06892215 -0.02620989 0.05208847 -0.037002675 0.0052262256 0.021038173 0.048028126
-0.20924474 0.00020951599 0.04149089 -0.042820152 -0.044142354 0.0067797517 0.029479805 -0.028458089
-0.00393687 0.056493685 0.0039845137 -0.00773591 -0.007618088 0.00018459006 -0.024974713 0.03295787
0.08212198 -0.069057316 0.0062597664 0.031478416 -0.01067484 -0.03204245 -0.08337145 -0.032858886
-0.07024347 -0.078414805 -0.0049940883 0.03604051 -0.06953314 -0.03625911 0.04786721 0.029101707
-0.012813199 0.032166883 0.07527129 -0.01678203 -0.014876234 0.019498372 -0.104139894 -0.011966517
0.058240853 -0.008787186 0.0042707315 -0.03487215 0.08955721 0.063138805 0.01918122 -0.021443164
0.059889548 0.0055085467 -0.061541505 0.0118156485 -0.11341233 -0.093192674 -0.040666092 -0.052096713
0.008607261 -0.015789496 -0.0029606125 0.06001419 -0.02755877 -0.019772232 0.05371992 0.0070348177
-0.19818884 0.012690059 0.04494982 -0.015822481 -0.084932044 0.07419091 -0.111086704 -0.10794917
00000000: cdac 04bc 7663 e8bc 3bdf 023d 0044 a03d
00000010: 2c4b fe3b dbf4 953d 54c5 a4bd 8d4f df3d
00000020: cb5c 083d 0360 af3b c42e 91bd 5b77 923d
00000030: a7d5 ebbd ce4a d7bd 89a7 3ebd e8e2 a2bc
00000040: 12f7 10bd 7a45 9e3c 1e9d 113d 3c8e c8bd
00000050: 7012 76bd ad67 e53b d3b3 6c3c acde 0d3d
00000060: 3488 d9bd d903 fabc 1b57 e5bc fe3c 9f3d
00000070: 4950 923d 390f e9bc a2e3 ca3b de97 55bc
00000080: e104 60bc 9bf5 4ebd a447 12bb b55c 60bb
00000090: 8234 a5bb 34a1 443d 5ee0 0d3d f820 4ebd
000000a0: 7be0 f6bd 6f57 e53c 0eea b13d 98b2 5b3d
000000b0: 6184 49bd a6e3 18bb b172 bc3c fab2 78bd
000000c0: 96d2 aa3d b7d0 223d 2b7c 183b c838 8cbb
000000d0: c401 fe3c 60a1 7fbd baf3 99bd 12f0 8b3c
000000e0: a917 81bd e444 70bd 2352 22bd d6f7 7e3b
000000f0: 9fed f4bb 49a3 2ebd 9b88 ef3c c9f3 fc3b
00000100: 0d13 1abd 5e8a b53c f11e 5b3d 8169 dbbc
00000110: e10b 2b3d 467a 23bd bfb1 b63d 168e 92bd
00000120: 2a2e 21bd 5d99 ce3b 176b 0b3a 578a 043c
00000130: 6941 1a3d b528 eb3c 552a 443d da9b 203c
00000140: f12e 433c 7912 d23c 4c2c 1bbd 06c5 723b
00000150: 38b7 273d af8f d7bc 15c0 68bd 29b4 bfbd
00000160: 82db 023d bec7 bbbc b66d 1d3d fce6 57bd
00000170: 91fb e7bc b5cf d13d bbc6 b1bd f419 ff3c
00000180: e068 0abd 4726 c13d 07dd 5e3c 3cdb 933d
00000190: 1efb e1bc d890 98bb 52e9 d53a 7f22 85bd
000001a0: 76e0 11bd b1bd 82bd 3b18 b03d 8377 35bd
000001b0: 3e20 21bc 6678 213d 3f2f 973d 7a30 5bbd
000001c0: 9124 193d 4bcc 0c3b 5fd1 53bd 4555 163d
000001d0: 2c5f 8dbb d832 0b3d 3111 93bd c96b 18bc
000001e0: 1981 10be 9d3a 263c d8e7 89bd 32d7 96bd
000001f0: 1a5b 393c ee89 ac3d 4bc2 4ebd bfa3 603d
00000200: 98ab 8fbc 7ead fcbc 8301 a8bd dea5 66bd
00000210: e53f 463d 21c6 873d b5e8 0a3c 6fc3 ba3c
00000220: ee79 9e3c 7210 963d 191b 79bd c0cc 3a3d
00000230: 2836 19bc 3e79 82bd 74e1 1bbd a69b 32bd
00000240: 1c1a 93bd 0b17 a5bd 40f0 d83a a055 ccbd
00000250: 713e 90bd 9491 54bd 91c1 783d c20d 54bd
00000260: e006 1a3d 7093 3ebc fe43 ee3d fb5c 2d3c
00000270: c0ac 13bc 4b28 9d3d f4c0 2a3d f882 52bc
00000280: f282 5d3c f1c3 e93c 7d95 fc3d 60f7 97bc
00000290: 69db d73c 6eca 5fbd bffc 2dbc d8a2 983d
000002a0: 7567 003d 104a 04be f6c3 963c 2da2 223b
000002b0: fc82 04bd b696 9d3d 24bd a4bb 86a9 1ebd
000002c0: 1419 0d3d 0e27 8dbd 20b6 d6bc b85a 553d
000002d0: 1e90 17bd c240 ab3b 3f58 ac3c 24b9 443d
000002e0: 4144 56be 85b1 5b39 5af2 293d 2f64 2fbd
000002f0: 9dce 34bd ae28 de3b a27f f13c f020 e9bc
00000300: dc00 81bb ec65 673d 8690 823b 847d fdbb
00000310: 27a1 f9bb 848e 4139 c597 ccbc d5fe 063d
00000320: 922f a83d ec6d 8dbd ba1e cd3b 83ef 003d
00000330: 86e5 2ebc f23e 03bd a7be aabd 0a97 06bd
00000340: cfdb 8fbd f197 a0bd 73a5 a3bb 379f 133d
00000350: 6467 8ebd 6f84 14bd 6810 443d b466 ee3c
00000360: 74ee 51bc 6cc1 033d d627 9a3d 787a 89bc
00000370: 73bb 73bc 0dbb 9f3c 4c47 d5bd 360f 44bc
00000380: f68d 6e3d 21f8 0fbc 7ef1 8b3b 19d6 0ebd
00000390: c569 b73d eb4e 813d ef21 9d3c 93a9 afbc
000003a0: be4e 753d 0a81 b43b f212 7cbd 6c96 413c
000003b0: b944 e8bd cddb bebd 7d91 26bd 5d63 55bd
000003c0: 7805 0d3c f958 81bc d606 42bb 70d1 753d
000003d0: eec2 e1bc 60f9 a1bc 6b09 5c3d 5484 e63b
000003e0: 04f2 4abe f7e9 4f3c 4d1d 383d 269e 81bc
000003f0: daf0 adbd 67f1 973d 6d81 e3bd 7414 ddbd

fc1.bias f4 [60]
0.044828236 0.097201705 0.061913803 0.13815048 -0.004999784 0.012632018 0.089327425 0.09060326
0.010290718 0.06711845 -0.012595205 0.14930591 -0.04329631 0.044038627 0.00036751336 0.047283377
0.04041111 0.020398188 -0.031565167 0.10466052 0.09414034 0.009550377 0.010310896 0.024367059
0.0037976254 -0.04361097 0.107965045 0.04676225 0.072645046 0.11495142 0.018245583 0.120419
0.027715238 0.12098868 0.035112575 0.036083087 0.09697228 0.04830246 0.060242593 0.023391522
0.04003556 0.028691296 0.056924414 -0.027377611 -0.020983726 0.05028339 0.14992952 0.053477287
0.062607214 0.018190365 0.06612571 0.10940044 0.0051733605 0.079505935 -0.009150286 0.122504614
0.08152286 0.14896196 0.113013126 0.124386005
00000000: d09d 373d b011 c73d 5499 7d3d 5277 0d3e
00000010: 3ad5 a3bb 86f6 4e3c 4cf1 b63d 348e b93d
00000020: 669a 283c 6675 893d 1e5c 4ebc a6e3 183e
00000030: 7957 31bd d961 343d cfae c039 37ac 413d
00000040: 1f86 253d 1a1a a73c 7a4a 01bd 4158 d63d
00000050: a7cc c03d 2f79 1c3c 08ef 283c 6d9d c73c
00000060: 95e1 783b 6ba1 32bd c71c dd3d c689 3f3d
00000070: edc6 943d a66b eb3d c377 953c 3d9e f63d
00000080: 110b e33c eac8 f73d 34d2 0f3d dccb 133d
00000090: 6799 c63d cdd8 453d f0c0 763d 949f bf3c
000000a0: 54fc 233d 020a eb3c 9329 693d 0347 e0bc
000000b0: 10e6 abbc f5f5 4d3d 2087 193e 000b 5b3d
000000c0: 3638 803d f603 953c eb6c 873d 560d e03d
000000d0: 4b85 a93b 02d4 a23d 15eb 15bc b3e3 fa3d
000000e0: 75f5 a63d 7c89 183e 6d73 e73d 17be fe3d

fc2.weight f4 [10, 60]
0.25700784 -0.2696668 -0.27743813 -0.20151989 -0.1332845 -0.29228625 0.25028843 -0.1961104
-0.18741241 0.07438899 -0.22370844 -0.21661167 -0.14615251 -0.273172 0.034589 0.2890205
-0.33274034 -0.29724386 -0.28988448 -0.04855809 -0.056701127 -0.19056979 -0.11254405 -0.35384983
-0.120321795 -0.20589861 0.24996795 0.30443817 -0.17665148 -0.023893204 0.25707793 0.2669385
0.22298709 -0.09311937 -0.33795422 0.20299746 -0.2534614 -0.2527786 0.27151188 0.23888494
-0.12655883 -0.44054723 0.035897568 -0.22331761 -0.22406493 0.22068611 -0.092161655 0.3661249
0.2636477 -0.29443222 -0.15636767 0.2702604 0.08711895 0.31885493 -0.28327394 -0.20286973
-0.22843564 0.2731522 -0.1647425 0.19403948 -0.32743484 0.2310169 -0.031828277 0.2546434
-0.30805779 0.15230563 -0.21636537 0.3927769 0.0028039208 -0.11959735 0.2639491 0.20726714
-0.26944607 0.14364369 -0.11616526 -0.23578843 0.21329321 -0.21629244 -0.17782933 0.2483893
0.5992803 -0.02160054 -0.18102601 -0.1409987 -0.21239862 -0.3094019 0.21001832 -0.04830626
0.2347221 0.413955 -0.25537473 0.15106918 -0.20601499 0.20554714 0.23249829 -0.2181342
0.3233418 -0.19941348 -0.2118331 -0.3060719 -0.11913208 -0.24748825 0.20541237 -0.24483831
-0.052790243 -0.36633685 0.48332965 -0.15131913 -0.24476849 -0.21488467 0.33391935 -0.1375392
0.20483579 -0.07364644 -0.19451202 0.24869955 0.22561915 0.21860164 0.29748285 0.12282009
0.16656819 -0.3475588 -0.059095923 0.24687749 0.19386275 0.19391742 -0.25202104 -0.102808185
-0.115272745 -0.20054705 -0.29369313 0.2007739 -0.2032228 0.21886511 -0.045429405 0.019726137
0.18454543 -0.16870162 -0.15896977 -0.2635986 -0.1944326 0.38230246 -0.09388931 0.13188954
0.31635955 0.12310599 -0.14293961 0.3088222 -0.34635478 -0.036908798 -0.22295722 -0.24411595
0.20409523 -0.21879846 0.25165805 0.17578486 -0.28337824 -0.18459678 -0.02508089 0.17502877
0.00873019 -0.25994328 0.23634242 -0.23572846 0.2649877 -0.13688493 -0.03166372 -0.19549523
0.23613697 0.280682 -0.058722947 0.26274008 -0.05942253 0.33683246 -0.13259622 -0.24654989
0.26215568 0.21622646 0.28238115 -0.30222917 -0.33263633 0.21856791 -0.060310032 -0.15844391
-0.107881896 0.16213973 -0.22045787 -0.2545298 0.22728482 -0.18695621 0.29186735 -0.21293955
-0.1998695 0.26053715 -0.14389375 -0.18024321 0.2080189 -0.14018513 0.2516052 -0.2438775
-0.2147983 0.010859304 -0.13659175 0.24200816 -0.0032918542 0.23608512 -0.2741995 0.10042993
-0.23831029 -0.109974295 -0.13312425 0.22490507 -0.26364237 -0.13520963 0.2414309 0.17247304
-0.2236176 -0.20672576 -0.13695516 0.21401267 0.3341569 0.19944009 -0.254464 0.3042372
0.29706985 0.2234201 -0.22457822 -0.08627876 0.22585636 0.24547468 -0.09850005 -0.18661489
0.26142192 -0.19302864 -0.020117356 -0.07785914 0.25622913 -0.24362394 -0.12205857 -0.26134503
0.28887266 0.21720526 0.4320032 0.22594057 0.26316655 0.17522638 -0.3115462 -0.046008155
-0.22289424 0.25068867 -0.19562231 0.19731918 0.26160705 -0.2954107 0.32209942 0.26349726
00000000: 8896 833e c411 8abe 5f0c 8ebe 3b5b 4ebe
00000010: bb7b 08be 8ba6 95be ce25 803e 2ad1 48be
00000020: 0ae9 3fbe 4159 983d d313 65be 73cf 5dbe
00000030: 01a9 15be 33dd 8bbe 32ad 0d3d 7ffa 933e
00000040: f15c aabe 5930 98be bd6b 94be d9e4 46bd
00000050: 713f 68bd ba24 43be 7f7d e6bd ce2b b5be
00000060: 466b f6bd 16d7 52be 99f7 7f3e 52df 9b3e
00000070: 20e4 34be aebb c3bc b89f 833e 2aac 883e
00000080: ba56 643e 5eb5 bebd 5608 adbe 91de 4f3e
00000090: b1c5 81be 326c 81be 9b03 8b3e 419e 743e
000000a0: a398 01be 688f e1be 5409 133d 5fad 64be
000000b0: 4771 65be 8afb 613e 40bf bcbd b974 bb3e
000000c0: d5fc 863e d2bf 96be d91e 20be 925f 8a3e
000000d0: 6c6b b23d f440 a33e 4809 91be 15bd 4fbe
000000e0: 08eb 69be 9bda 8b3e 42b2 28be 49b2 463e
000000f0: 8aa5 a7be b28f 6c3e 5e5e 02bd 9f60 823e
00000100: c0b9 9dbe 02f6 1b3e e28e 5dbe 0e1a c93e
00000110: fcc1 373b 75ef f4bd 5624 873e d63d 543e
00000120: d6f4 89be 5517 133e 0de8 edbd 8672 71be
00000130: 8969 5a3e c47b 5dbe e418 36be c459 7e3e
00000140: 6f6a 193f 9ef3 b0bc e25e 39be f761 10be
00000150: 067f 59be ed69 9ebe 0b0f 573e c9dc 45bd
00000160: fd5a 703e e9f1 d33e 7ac0 82be e1b1 1a3e
00000170: 98f5 52be f37a 523e 0814 6e3e 925e 5fbe
00000180: 0e8d a53e 0c33 4cbe c7ea 58be 75b5 9cbe
00000190: 85fb f3bd 8f6d 7dbe 9f57 523e e5b6 7abe
000001a0: 953a 58bd 8190 bbbe fc76 f73e 67f3 1abe
000001b0: 97a4 7abe ba0a 5cbe 7af7 aa3e 13d7 0cbe
000001c0: 79c0 513e f2d3 96bd 292e 47be 18ab 7e3e
000001d0: b508 673e 1cd9 5f3e ac4f 983e 1989 fb3d
000001e0: da90 2a3e 3af3 b1be 910e 72bd 74cd 7c3e
000001f0: f583 463e 4a92 463e e708 81be 198d d2bd
00000200: 1e14 ecbd 355c 4dbe f25e 96be ac97 4d3e
00000210: a319 50be 2d1e 603e 2f14 3abd b598 a13c
00000220: 7af9 3c3e 1ec0 2cbe f9c8 22be 65f6 86be
00000230: 5719 47be 26bd c33e 0a49 c0bd 0d0e 073e
00000240: e1f9 a13e fe1e fc3d c35e 12be f21d 9e3e
00000250: 6a55 b1be ae2d 17bd e64e 64be 88f9 79be
00000260: 57fe 503e b40c 60be 53d9 803e f200 343e
00000270: f416 91be f006 3dbe 7076 cdbc be3a 333e
00000280: 1209 0f3c 4917 85be bf03 723e cd62 71be
00000290: 78ac 873e 902b 0cbe d1b1 01bd e72f 48be
000002a0: e4cd 713e 8db5 8f3e 7987 70bd de85 863e
000002b0: 0a65 73bd 4e75 ac3e 4ec7 07be 9377 7cbe
000002c0: 4539 863e 786a 5d3e 4394 903e c8bd 9abe
000002d0: 4f4f aabe 44d0 5f3e a707 77bd 1f3f 22be
000002e0: 2ff1 dcbd f507 263e b5bf 61be bb51 82be
000002f0: 5abd 683e 7371 3fbe a36f 953e d30c 5abe
00000300: 97aa 4cbe 2065 853e e258 13be ad91 38be
00000310: e802 553e b18c 0fbe 66d2 803e 06bb 79be
00000320: 16f4 5bbe 39eb 313c b5de 0bbe fdd0 773e
00000330: 26bc 57bb 4cc0 713e e063 8cbe 35ae cd3d
00000340: 9d07 74be 343a e1bd b951 08be 844d 663e
00000350: 22fc 86be 6574 0abe a939 773e c69c 303e
00000360: 03fc 64be ebaf 53be f93d 0cbe 2326 5b3e
00000370: 9d16 ab3e 063a 4c3e 1b49 82be fac4 9b3e
00000380: 8a19 983e 3dc8 643e d5f7 65be ebb2 b0bd
00000390: e446 673e b75d 7b3e 65ba c9bd f917 3fbe
000003a0: 18d9 853e 4da9 45be 27cd a4bc 9d74 9fbd
000003b0: 7730 833e 8e78 79be d8f9 f9bd 04cf 85be
000003c0: 1ee7 933e 0e6b 5e3e 862f dd3e f75c 673e
000003d0: c4bd 863e 8b6e 333e fc82 9fbe 0c73 3cbd
000003e0: 633e 64be 445a 803e 3751 48be 0a0e 4a3e
000003f0: 5cf1 853e 1240 97be 37ea a43e 1de9 863e

fc2.bias f4 [10]
0.60324186 0.5254823 0.0344453 -0.17793152 -0.10965151 -0.15633592 -0.30261174 0.18070063
0.035549693 -0.21082656
00000000: 0f6e 1a3f 0286 063f 8416 0d3d ae33 36be
00000010: f990 e0bd 8616 20be edef 9abe 9609 393e
00000020: 8e9c 113d ebe2 57be
